chatbot/data.pth (torch, 6175 bytes, 6 tensors)

l1.weight f4 [8, 75]
000000 73 d7 0a be ab 97 c5 bd bd 6c 60 3f 79 6e 23 3e
       -0.1355875 -0.09648069 0.8766592 0.1596011
000010 d2 c7 a4 3d c5 70 a1 3e 7d 46 fc 3e 9a 8a b8 3d
       0.08045925 0.3153135 0.49272528 0.09010811
000020 a5 3d 7c 3f ca 03 7d 3e cf 49 6f 3f 72 9d 2f bf
       0.9853156 0.24708477 0.93472 -0.6859962
000030 76 e1 5e 3e dd fd 77 3e c4 d7 9d 3e 6b 7a ce bc
       0.21765694 0.24217935 0.3082868 -0.025204858
000040 79 15 52 3e 86 67 40 3f 15 93 f7 3e e8 ac c5 3e
       0.20516004 0.75157964 0.48354402 0.3860848
000050 92 36 d9 3d 4e c2 c8 3e a0 e7 3c 3f 9b a3 2f bf
       0.106061116 0.39210743 0.7379093 -0.6860902
000060 63 d2 d5 3e 6b 84 60 3f b3 1b 4d be 39 36 62 3f
       0.41762075 0.87702054 -0.20030098 0.8836399
000070 c0 26 77 3f 5d d0 9b 3e 23 e9 3f 3f d5 32 d0 3e
       0.965435 0.30432406 0.74965113 0.40663782
000080 f1 70 e3 3e ac 24 fd 3e c9 2b 36 3f 9b 7e 91 3e
       0.44422105 0.4944204 0.7116056 0.28416905
000090 21 d0 b7 3e 41 dd c8 be 4b 93 0b 3f 1c b8 c9 3e
       0.35900977 -0.39231303 0.54521626 0.39398277
0000a0 d6 97 61 3c 36 c9 a8 3e 46 84 06 3f 67 c4 07 3f
       0.013769111 0.32966012 0.52545583 0.5303406
0000b0 f4 5a 0a 3f e9 c0 b2 3e c0 95 fb 3e ac ed 94 be
       0.54045033 0.34912804 0.49137688 -0.2908758
0000c0 7c b0 44 3e 19 fb 44 be 3f 89 5d be ea 3d e6 3e
       0.19207948 -0.19236411 -0.21634386 0.44969112
0000d0 2f c7 e7 be f6 d8 99 3e aa b8 d8 3e 67 c6 bb 3e
       -0.45269153 0.3004834 0.42328387 0.36674806
0000e0 7d f8 e7 3d 9a 8c 82 3e a8 e0 04 3f 85 b0 35 bf
       0.11326692 0.25497895 0.519053 -0.7097247
0000f0 28 a3 88 be e6 8e 11 3f 31 76 25 3f 9a 95 e6 3d
       -0.26686978 0.5685867 0.6463347 0.11259003
000100 b2 9d 0c 3f 00 2d 67 3e 29 54 ec bd 92 bf f8 3d
       0.54928124 0.2257576 -0.1153949 0.12145914
000110 79 9f 01 3e 1c 1a 45 3f 07 62 73 3e 74 78 12 3f
       0.1265849 0.76992965 0.23767863 0.57215047
000120 1b 30 6f be 85 9e e2 3e db 2d 2b 3e 61 62 03 3f
       -0.23358195 0.44261566 0.16716711 0.5132199
000130 d7 2f 4a 3e 4a cf d2 be 9a 06 25 3f 7a 70 c3 3e
       0.19744812 -0.41173774 0.644632 0.3817175
000140 e1 0c f6 3e b0 8b 3a bd eb 5d b1 3e 21 d3 81 bf
       0.480567 -0.045543373 0.34641966 -1.0142556
000150 30 c5 9f 3e ce 4b 55 3f 0a 7e cf be 3f b1 64 3f
       0.3120513 0.83318794 -0.40525848 0.89332956
000160 8d d7 03 3f 66 04 c6 bd a1 58 0f 3f 26 e9 1e 3f
       0.5150078 -0.09668808 0.5599461 0.62074506
000170 d3 78 7a bd e9 f7 65 be 64 09 23 3f 67 b7 09 3f
       -0.061150383 -0.22457851 0.63686204 0.53795475
000180 24 71 06 3d c5 8b 00 bf 0c a3 cf be 80 40 5c bc
       0.032822743 -0.5021327 -0.40554082 -0.013443112
000190 8c d6 cf be 4d 52 d5 3e 81 ad cf be e7 c4 cf be
       -0.40593374 0.41664353 -0.4056206 -0.40579912
0001a0 6d 56 b6 3e 1b e6 2e 3f 43 dc 34 3f b6 8b 7b be
       0.35612813 0.68319863 0.7064859 -0.24565014
0001b0 b9 c8 0d be 21 09 10 bf f4 54 11 3f 2d 7e 0e bf
       -0.13846101 -0.5626393 0.56770253 -0.5566128
0001c0 63 4a 57 be e1 93 f7 be ec f8 b4 be 9a f1 81 3e
       -0.2102447 -0.4835501 -0.35346162 0.2537964
0001d0 24 12 f7 3e 32 8a b3 bd a0 9f 1e be fb 5f 83 bd
       0.48256028 -0.08766593 -0.1549058 -0.06414791
0001e0 5c 99 2f 3f 01 54 60 be e8 30 0a 3f f8 02 27 bc
       0.6859338 -0.21907045 0.53980875 -0.010193579
0001f0 ba c7 07 bb 83 43 34 be 95 dc 59 3f 14 55 f9 bd
       -0.0020718412 -0.17603879 0.85102206 -0.121744305
000200 03 5b 18 3f 2c 8b 2a 3f 25 8c 2a 3f 1a 75 11 3f
       0.5951387 0.6661861 0.66620094 0.5681931
000210 35 ed 06 3f 44 4e 08 be 8f df 88 3f 81 91 dd 3e
       0.527057 -0.13311106 1.0693225 0.43275073
000220 de 9b 45 3f f4 4b 4e be 81 3a a3 3e ae 3c c1 3e
       0.7719096 -0.20146161 0.31880572 0.37741607
000230 67 56 28 3f b3 94 19 3f c5 7c 51 3f 80 06 b4 3e
       0.6575684 0.5999252 0.8183101 0.3516121
000240 b4 76 12 bf 11 78 1d 3f 9d 24 26 bf 9c 1b 25 3c
       -0.57212377 0.6151133 -0.6489962 0.010077383
000250 14 64 bb be b7 37 98 bd 58 01 c4 bd 27 2e c0 3d
       -0.3659979 -0.07432502 -0.09570569 0.09383803
000260 5d bc 07 3f c0 72 19 3e ca fe 08 3f f7 84 90 be
       0.53021795 0.1498518 0.5351378 -0.28226444
000270 bd b9 2d be 68 8c c7 3e 74 e7 15 3e d6 65 ce 3e
       -0.16965385 0.3897431 0.14639074 0.4031207
000280 ce 88 41 3f 45 dd b2 be 57 29 83 be 04 16 06 be
       0.7559937 -0.3493444 -0.25617477 -0.13094336
000290 8e 77 1b 3e dc a9 1e 3d 9c 2b af bd ee ae 90 be
       0.15182325 0.03873621 -0.0855324 -0.2825846
0002a0 09 9e a3 3e 0d ca 2a 3d 70 66 2d be fb 5b 09 3f
       0.3195651 0.041696597 -0.16933608 0.53655976
0002b0 0e f6 28 3e 8f c5 b2 be 95 65 0b 3f c8 f5 54 3e
       0.16500112 -0.3491635 0.54451877 0.20796883
0002c0 23 35 18 3d 5f f0 1c 3e e8 35 0d 3e 96 0a ae be
       0.03716005 0.1532607 0.13790095 -0.3399245
0002d0 96 1d 71 3e 8c 5a e7 3e bf 17 b1 3e c4 27 6a 3e
       0.23546442 0.4518627 0.3458843 0.22866732
0002e0 84 07 0c 3e e2 97 2e 3f 14 c6 a7 3e d9 1b 00 be
       0.13674742 0.68200505 0.3276831 -0.12510623
0002f0 ec a7 a9 3e 56 ad d1 3e 45 03 ea bd 5f ae d2 3d
       0.33135927 0.40952557 -0.11426405 0.10287165
000300 17 74 ce 3e 53 a4 4d 3f eb d4 0d 3f 8f 54 c8 bd
       0.40322945 0.80328864 0.5540301 -0.09781753
000310 4e 15 87 3e 46 f5 78 3e d5 9a a1 3d 97 84 95 bc
       0.26383442 0.24312314 0.0789086 -0.0182517
000320 18 17 4e be 49 17 e1 be 11 42 5e bd 94 a4 03 bf
       -0.20125997 -0.43963078 -0.054262225 -0.51423
000330 ba 4c 0f bd 55 6f 16 3f 89 75 0b bf a8 3b 95 bb
       -0.03498528 0.5876363 -0.5447622 -0.0045542307
000340 23 11 b4 3e 9b f3 b2 be 71 72 9d bd 83 f3 d1 3e
       0.35169324 -0.3495148 -0.076878436 0.41006097
000350 17 89 43 bd 9f aa 0c 3f 75 54 b1 3e 57 e8 06 bf
       -0.04773816 0.5494785 0.34634748 -0.5269827
000360 50 ba cf 3e 52 dd 34 3f f8 51 e9 3e ab ad 4a 3f
       0.40571833 0.7065021 0.4557035 0.79171246
000370 07 9d 17 3f 69 3c 12 3f 72 48 68 bd bb 4d b4 3e
       0.5922398 0.5712343 -0.056709714 0.35215554
000380 a0 e4 2d be 34 7e 31 3f 61 06 ba 3e c6 36 b8 be
       -0.16981745 0.69333196 0.36332992 -0.3597929
000390 80 20 0e 3f 20 23 85 3d 83 7a df 3e ab 26 9c be
       0.5551834 0.0650084 0.43648157 -0.3049825
0003a0 60 6d bb bc 4f 6e 85 bd e7 95 cb bd b8 ef f4 3b
       -0.022879303 -0.0651518 -0.09940701 0.0074748658
0003b0 9d dc 54 3f b5 17 2e 3f e8 86 f9 3e 6b 2f 22 3f
       0.8314913 0.68004924 0.48735738 0.63353604
0003c0 5a c9 cc 3e e7 27 1b 3f 2a 36 c0 be 1b de 8d be
       0.3999737 0.6060776 -0.37541324 -0.27708516
0003d0 d9 01 15 3f 8b e4 91 3e 97 41 98 bd 3f 14 c1 be
       0.58205944 0.28494677 -0.07434385 -0.3771076
0003e0 78 60 41 3f db 21 c4 be c9 45 0d bf 79 5c 39 3f
       0.75537825 -0.3830708 -0.5518461 0.7240673
0003f0 46 1f 20 bf 00 a0 0a bf eb af a4 3e f6 86 11 3e
       -0.6254772 -0.5415039 0.32165465 0.1421164

l1.bias f4 [8]
000000 32 93 35 3f 21 9e cf 3e 7d cc b2 3e 0e d9 4c 3f
       0.7092773 0.4055033 0.34921637 0.800187
000010 36 ab 74 3e e8 ad c3 3e 15 ec 9b 3f a6 b1 bc 3e
       0.23893437 0.38218617 1.2181422 0.36854285

l2.weight f4 [8, 8]
000000 5d a8 b8 3f d5 4e 08 bd dc d2 72 3f 87 28 59 bf
       1.442638 -0.033278305 0.94852996 -0.84827465
000010 70 b3 a7 3d 67 e2 42 bf 08 a1 e3 3e 68 b2 69 3f
       0.08188522 -0.7612671 0.44458795 0.9128785
000020 6e af b0 be c3 0b 73 bf 89 3d 05 bf 28 1b 40 3f
       -0.34508842 -0.9493982 -0.5204702 0.7504144
000030 40 6c 89 bf 84 e8 84 be 6a de ab 3f 1e d6 55 bf
       -1.073616 -0.25958645 1.342725 -0.8352984
000040 02 20 87 3d 7c 41 c9 3f 7d 0c 15 3f 74 e2 f1 3e
       0.06597902 1.5723109 0.5822218 0.47243083
000050 ca ca 73 bf 75 9e 51 bf c2 fa 42 3f 0e 6e 95 3e
       -0.95231307 -0.8188241 0.76163876 0.29185528
000060 35 5e d7 bd a3 9b e6 bd 42 a2 4d be af 81 c1 bb
       -0.105160154 -0.11260154 -0.20081428 -0.005905352
000070 06 d7 53 3e 77 48 94 bc 54 48 a4 3d 8d 42 b6 bd
       0.20687494 -0.01810096 0.08021608 -0.08899412
000080 a6 d3 08 3f e9 bb f3 3e 12 d3 36 bf c6 c3 a1 bd
       0.5344795 0.47604302 -0.7141582 -0.07898669
000090 79 9c d1 be 1a 60 94 bf a8 6f 92 3f 0b 96 55 bf
       -0.40939692 -1.1591828 1.1440325 -0.8343207
0000a0 9f 8c a9 3c f9 a5 e6 bc ab 11 7a 3e 05 23 1a 3e
       0.020696936 -0.028155314 0.24420802 0.15052421
0000b0 29 a9 a7 bd 0a ae 00 3e 76 17 b7 be 87 ea 94 be
       -0.081865616 0.1256639 -0.35760087 -0.2908518
0000c0 52 77 16 3e b3 16 4b 3f e6 00 25 bf 65 1e e0 3f
       0.14693955 0.7933151 -0.64454496 1.7509276
0000d0 41 fb 07 3f d8 13 9b 3f d3 44 bd 3f 7b 92 76 be
       0.5311776 1.2115431 1.4786628 -0.24079315
0000e0 fb 86 90 be 65 c3 04 be b7 cc a3 3e e8 f9 66 bd
       -0.28227982 -0.12965162 0.31992123 -0.056390673
0000f0 58 05 a2 be 21 61 a1 3e 48 c7 03 bd 01 e7 8d be
       -0.31644702 0.31519416 -0.03217247 -0.27715304

l2.bias f4 [8]
000000 f8 0b 46 3f 75 88 a0 3f 47 e5 23 bf 1b b2 9b be
       0.7736201 1.2541643 -0.64021724 -0.3040932
000010 e9 a9 32 3e 3d 72 76 be 87 c2 01 3f 46 36 9a be
       0.17447628 -0.24067016 0.5068745 -0.30119532

l3.weight f4 [7, 8]
000000 d0 c8 99 be 04 18 dc bf 55 fd f6 bc 42 52 c1 bd
       -0.3003602 -1.7194829 -0.030150095 -0.094395176
000010 61 fb 24 3f ee 1c 7e 3e 2e d0 16 3e 8e 6b 46 be
       0.64446074 0.24815723 0.14727852 -0.19376966
000020 f2 0b 6d 3e 8b 15 a4 bf 32 a0 0a 3f 4a 5f c9 be
       0.23149088 -1.2819074 0.5415069 -0.39330512
000030 90 68 95 bf d3 5d c5 3d f7 5f bb be 9a 02 39 3e
       -1.1672535 0.09637036 -0.36596653 0.18067399
000040 4e 38 8d 3f f0 29 a0 bf 67 c0 1c be 43 0f af be
       1.1032808 -1.2512798 -0.1530777 -0.3419133
000050 79 a6 19 bf 90 9c 8f be 8c 4e db bf 60 b9 80 bc
       -0.6001964 -0.28049135 -1.7133346 -0.015713394
000060 22 7d b8 bf ab aa 8d 3f 9f f7 1f c0 b8 72 d2 be
       -1.4413188 1.1067709 -2.4994886 -0.41103148
000070 c6 c4 19 bf 09 70 81 be 84 40 05 3f 84 5f c0 3d
       -0.6006588 -0.2528079 0.5205157 0.09393218
000080 b0 d0 31 3f 28 ea 3f 3e f4 7d 91 bf 72 21 59 3e
       0.69459057 0.18741667 -1.1366563 0.21204165
000090 19 80 29 3f 75 1d 38 3e b1 9e a4 bd 7e 56 18 3e
       0.66211087 0.17979987 -0.080380805 0.14876744
0000a0 09 a4 43 bf ae 3d ec bf 5b be 97 bf f3 91 1c be
       -0.7642217 -1.8456323 -1.1854967 -0.1529005
0000b0 ed 14 02 bf 00 89 97 be e6 14 77 3f 4c fc 1f be
       -0.5081318 -0.2959671 0.96516263 -0.15623587
0000c0 aa ee ae bf 33 2e 14 3f e4 d8 a9 bd ff 30 23 3e
       -1.3666584 0.57882994 -0.08293322 0.1593666
0000d0 9a 3a f6 3e b8 e5 a6 be 5f bd 79 3d 43 89 82 3e
       0.48091584 -0.32597136 0.060971614 0.25495347

l3.bias f4 [7]
000000 ff 99 26 bf fe 2a 2e bd cd 7a 2e 3e 50 f0 20 3f
       -0.6507873 -0.04252147 0.17039032 0.6286669
000010 2b f0 7c be b4 21 da 3e 0f 45 23 bf
       -0.24700992 0.42603838 -0.6377725
